modeloTreinado.pth (torch, 58120 bytes, 3 tensors)

fc1.weight f4 [500, 26]
0	0x3e003c88	0.12523091
1	0xbce4900f	-0.027900724
2	0x3c4acda4	0.01237813
3	0x3d06dc0a	0.03292469
4	0xbe1dc609	-0.15407576
5	0x3dc03419	0.09384937
6	0x3da00f9b	0.078154765
7	0xbd3fb9c5	-0.046808023
8	0x3d0d10de	0.034439914
9	0xbd2fc3ec	-0.042911455
10	0xbe3ccb95	-0.18437035
11	0xbe28d5ae	-0.16487762
12	0x3d5d2f93	0.05400045
13	0xbda5d636	-0.08097498
14	0x3e0071c9	0.12543406
15	0xbe38adf9	-0.18035115
16	0xbd1775d2	-0.036977597
17	0x3ca08891	0.01959637
18	0xbe2327e0	-0.1593318
19	0xbd26cd87	-0.04072335
20	0xbd56d94c	-0.052453324
21	0xbe247d82	-0.16063502
22	0xbcf63103	-0.030052667
23	0xbe12a2c4	-0.14319903
24	0xbd21df72	-0.039519735
25	0x3dbc4438	0.09192699
26	0xbe09ed28	-0.13469374
27	0x3e44f942	0.1923571
28	0xbf1eaacf	-0.61979383
29	0xbe942136	-0.28931588
30	0x3ea1c635	0.31596532
31	0x3eeda349	0.4641364
32	0x3dd10a91	0.102070935
33	0x3ea9c257	0.33156082
34	0x3e8c3012	0.27380425
35	0xbdcec83f	-0.10096788
36	0x3f05016d	0.519553
37	0x3e0a6d01	0.13518144
38	0x3ee3a3c2	0.44460875
39	0x3e26de84	0.1629582
40	0xbe0049c9	-0.12528147
41	0xbd869e85	-0.06573204
42	0x3db78463	0.08960798
43	0xbeb32a8b	-0.34993395
44	0xbc145679	-0.00905382
45	0xbe0523ea	-0.13001981
46	0xbc26f440	-0.01019007
47	0xbe9ed71a	-0.31023484
48	0xbe082f0b	-0.13299195
49	0x3d9b3a05	0.07579426
50	0x3e8ea406	0.27859515
51	0xbe3ee9d1	-0.18643881
52	0x3d9fdef3	0.07806196
53	0x3de91138	0.11380237
54	0x3ca3f705	0.020015249
55	0xbe9365bb	-0.28788552
56	0x3eb84d11	0.35996297
57	0xbdb437e6	-0.08799724
58	0xbe1572f4	-0.14594632
59	0xbe45386c	-0.19259804
60	0xbc2f712c	-0.010708135
61	0xbe4c200a	-0.19934097
62	0xbe7cb826	-0.24679622
63	0xbda4bf32	-0.0804428
64	0xbddf50b1	-0.109040625
65	0xbcae0931	-0.021244617
66	0x3eadcfce	0.33947605
67	0x3eaa9442	0.33316237
68	0xbd44f7d8	-0.048087925
69	0x3c0d063e	0.008607445
70	0xbbf53db0	-0.0074841604
71	0xbe1c79c8	-0.15280831
72	0xbcc2c067	-0.023773385
73	0x3e39e5fd	0.1815414
74	0xbd459819	-0.048240755
75	0xbe2dfc72	-0.16990831
76	0x3e85e4e9	0.26151207
77	0x3e8b10ca	0.27161247
78	0x3e576500	0.21034622
79	0xbe39abb3	-0.18131904
80	0x3f020b1f	0.5079822
81	0x3f39e1f3	0.72610396
82	0xbf4166ad	-0.75547296
83	0xbea931ed	-0.33045903
84	0xbe97557e	-0.29557413
85	0x3ec2ebd9	0.38070562
86	0x3dd4cd2c	0.10390696
87	0xbd414c01	-0.047191624
88	0x3ca25855	0.01981751
89	0x3d8a3b40	0.06749582
90	0x3edba9c8	0.4290297
91	0xbe8b8061	-0.27246383
92	0x3da63112	0.08114828
93	0xbe8792af	-0.26479098
94	0x3edd263d	0.43193236
95	0x3b4efbb5	0.0031583135
96	0x3e3e3f7a	0.18578902
97	0xbd903597	-0.070414715
98	0xbd24f4fe	-0.040272705
99	0xbeeb93f4	-0.46011317
100	0xbe0228fd	-0.12710948
101	0x3dcdc342	0.10047008
102	0xbdf7d04a	-0.12100275
103	0xbd89370a	-0.06699951
104	0x3e06ee81	0.1317692
105	0x3d0abf71	0.03387398
106	0x3e7d5399	0.24738921
107	0x3e5c6be1	0.21525528
108	0xbcc245ea	-0.023714978
109	0x3d7075b5	0.058706004
110	0x3e44479d	0.19167943
111	0x3af9a85b	0.0019047366
112	0xbd562b39	-0.052287314
113	0xbe1f40aa	-0.15552011
114	0xbe483686	-0.19552049
115	0xbda7b0da	-0.08188029
116	0x3e060cf3	0.13090877
117	0xbdc31992	-0.095263615
118	0xbe485b65	-0.19566114
119	0xbda3175b	-0.07963439
120	0x3d979cfe	0.07402991
121	0xbe417663	-0.18892817
122	0x3ccf72e4	0.025323339
123	0xbda54555	-0.08069865
124	0xbc8290c6	-0.015938174
125	0x3e4580aa	0.19287363
126	0x3dc9c355	0.0985171
127	0x3da0eee9	0.078580685
128	0xbb6f7a1a	-0.0036541284
129	0xbe16f1e0	-0.14740705
130	0xbdb5b8a9	-0.08873112
131	0x3b9c7280	0.0047743917
132	0x3e1ec85d	0.1550612
133	0x3e030de7	0.12798272
134	0xbd23695c	-0.0398954
135	0xbe447b05	-0.19187553
136	0x3d31976c	0.043357298
137	0x3c966428	0.018358305
138	0x3dfa3762	0.12217595
139	0xbe015a6e	-0.12632152
140	0x3cf4b5f8	0.029871926
141	0x3d938ed6	0.07204978
142	0x3e31cac7	0.1736251
143	0x3d6c1b8c	0.05764346
144	0xbc60eb00	-0.013727903
145	0xbe3e4d5d	-0.18584199
146	0xbe1eaf11	-0.1549647
147	0xbdd625ae	-0.104564056
148	0xbdd17fc2	-0.10229446
149	0xbd2e0be0	-0.042491794
150	0x3e28fc4b	0.16502492
151	0xbdbdd804	-0.09269717
152	0xbde952dc	-0.11392757
153	0x3e044657	0.12917458
154	0xbe176094	-0.14782935
155	0xbe3ce8c5	-0.1844817
156	0xbdc4c5a0	-0.096080065
157	0xbde7d05a	-0.11319037
158	0xbd25a9ed	-0.040445257
159	0xbdfbc545	-0.122934856
160	0xbdb79570	-0.0896405
161	0x3e21aae0	0.1578784
162	0x3d173ac5	0.03692128
163	0xbdb91a72	-0.09038247
164	0x3e28cb36	0.16483769
165	0x3e0db91a	0.13840142
166	0x3bc120ec	0.005893817
167	0xbdaaef18	-0.08346385
168	0xbd7978d8	-0.06090626
169	0xbe357862	-0.17721704
170	0xbdfb2061	-0.12262035
171	0x3e05d17b	0.13068192
172	0x3dca7d2b	0.09887155
173	0xbd4f2fb1	-0.05058259
174	0x3e407c2c	0.18797368
175	0xbdbbeb56	-0.09175746
176	0xbe42147f	-0.18953131
177	0x3e1c23a8	0.15247977
178	0x3d891629	0.0669368
179	0xbcc154fe	-0.023600098
180	0xbdf46e1f	-0.119350664
181	0x3d151e5d	0.03640591
182	0xbbcbce6a	-0.006219675
183	0x3e03ba58	0.12864053
184	0x3f21e7c3	0.63244265
185	0x3ee39a4b	0.44453654
186	0xbee6d055	-0.4508082
187	0xbebf505f	-0.37366006
188	0x3d39e923	0.045388352
189	0xbd84dcb2	-0.06487407
190	0xbe3338df	-0.17502163
191	0x3d5aee8e	0.05345016
192	0xbd88b624	-0.066753656
193	0xbcc7a9c5	-0.024372945
194	0xbd9a0d72	-0.07522096
195	0x3e1c99c9	0.1529304
196	0xbe32788b	-0.17428796
197	0xbe5649d4	-0.209266
198	0xbbb9ee30	-0.005674146
199	0xbdde9d1e	-0.108698115
200	0xbd8ec01b	-0.06970235
201	0x3d981ad5	0.07426993
202	0x3d6e9ac0	0.05825305
203	0x3e41e7a5	0.18936022
204	0x3e19d163	0.15021281
205	0xbd2fc18f	-0.0429092
206	0x3d14b08b	0.036301177
207	0xbe3db015	-0.18524201
208	0xbd061c81	-0.032742027
209	0x3d55cfe0	0.0522002
210	0x3e08ea30	0.13370585
211	0xbe18cee0	-0.14922667
212	0xbddd5eea	-0.10809119
213	0xbd33911b	-0.043839555
214	0x3da4274e	0.08015309
215	0xbe3450d9	-0.17608966
216	0xbd87aeaf	-0.06625115
217	0xbc9b46e4	-0.018954702
218	0xbe06fec8	-0.13183129
219	0xbddf06d1	-0.10889972
220	0xbddc2e64	-0.10751036
221	0x3e0eed9f	0.13957833
222	0xbe48c170	-0.1960504
223	0xbd95eb1e	-0.07320236
224	0xbd06dfef	-0.032928403
225	0x3e065021	0.13116504
226	0xbe04e915	-0.12979539
227	0xbe18549d	-0.14876027
228	0x3e327a65	0.17429502
229	0x3ded4981	0.115862854
230	0xbca65670	-0.020304888
231	0xbe028bd9	-0.1274866
232	0x3e28cf8d	0.16485424
233	0x3df8d494	0.12149921
234	0x3e04b4e4	0.1295963
235	0xbb078a6d	-0.0020681873
236	0xbd915266	-0.070957944
237	0x3cbc8756	0.023013752
238	0xbe40ce49	-0.18828692
239	0x3d64765f	0.05577695
240	0x3e7010c2	0.23443893
241	0x3e1ba4bf	0.15199564
242	0xbd25eb15	-0.040507395
243	0x3e1c4633	0.15261154
244	0x3df0be15	0.11755005
245	0xbd919d14	-0.071100384
246	0xbe50eb8a	-0.20402351
247	0x3d987308	0.074438155
248	0x3d4b37c8	0.049613744
249	0xbc171493	-0.009221214
250	0xbe617dac	-0.22020596
251	0x3dfa6b25	0.122274674
252	0x3deaf03d	0.11471603
253	0x3bb54ec3	0.005533071
254	0x3c8ca00e	0.017166164
255	0xbdcc9104	-0.09988597

fc1.bias f4 [500]
0	0x3dc27140	0.09494257
1	0xbda77804	-0.08177188
2	0x3d2db6fd	0.04241084
3	0x3d955477	0.07291501
4	0x3d908acd	0.07057724
5	0xbe132606	-0.14369974
6	0x3cc191cf	0.023629097
7	0x3e33fb13	0.17576246
8	0xbe0aefba	-0.13568011
9	0xbe4d0a0a	-0.20023361
10	0x3cc73310	0.02431634
11	0xbe208bd3	-0.15678339
12	0xbdbfee38	-0.093716085
13	0x3de58807	0.11207586
14	0x3e36b0f5	0.17840941
15	0xbd30aa52	-0.04313118
16	0xbce1f71f	-0.027583657
17	0x3d72815c	0.059205398
18	0xbe4d096a	-0.20023122
19	0xbd2308b5	-0.039803226
20	0x3d89ffdb	0.06738254
21	0xbd174764	-0.036933318
22	0xbb1dae14	-0.0024060057
23	0x3db925eb	0.090404354
24	0xbcdc56f6	-0.026896935
25	0xbd7af4b8	-0.06126854
26	0xbb781585	-0.0037854624
27	0x3d1c0647	0.038091924
28	0x3ae2c659	0.0017301544
29	0xbd9f4467	-0.077767186
30	0xbd317fa1	-0.043334607
31	0x3d5f6541	0.054539923
32	0xbd0ff0dc	-0.03514181
33	0x3da437cc	0.08018455
34	0x3c3e5a24	0.011618171
35	0xbde0b963	-0.1097286
36	0x3db30227	0.08740645
37	0xbe1d8b89	-0.1538526
38	0x3cf8be6a	0.030364234
39	0x3d3d814c	0.046265885
40	0x3d63f6ac	0.055655167
41	0xbd32a046	-0.04360988
42	0xbd0b6721	-0.0340339
43	0xbd51ea7f	-0.051249024
44	0xbe036324	-0.12830788
45	0xbbcc79c7	-0.006240103
46	0xbe0970c8	-0.13421929
47	0x3e0fc347	0.14039336
48	0x3d2d9d1a	0.04238615
49	0xbe1b8b01	-0.15189745
50	0x3c73284c	0.0148411505
51	0xbd442ade	-0.047892444
52	0xbd95a5ff	-0.07307052
53	0xbddf212f	-0.10895001
54	0xbc1662a5	-0.009178792
55	0xbd8515fc	-0.06498334
56	0xbd7d1798	-0.06179008
57	0xbdae1c22	-0.0850146
58	0x3dd660f7	0.10467713
59	0xbdb3eccf	-0.08785402
60	0x3e806c0b	0.2508243
61	0x3de44e01	0.111476906
62	0xbde88baa	-0.11354764
63	0xbd0c6a44	-0.03428103
64	0x3c9ceffa	0.019157398
65	0xbd8ba852	-0.06819214
66	0xbb116109	-0.0022183082
67	0x3e285b71	0.16441132
68	0xbe21fd13	-0.15819196
69	0x3cce27ed	0.025165522
70	0x3e1fd937	0.15610205
71	0x3e13aa23	0.14420371
72	0x3daa1140	0.083040714
73	0xbe3b33a2	-0.18281415
74	0xbe0a0268	-0.1347748
75	0xbe369fbf	-0.17834376
76	0x3e362f5d	0.17791505
77	0x3e08cefe	0.13360211
78	0xbdb0eb2f	-0.08638608
79	0x3e255d7e	0.16148946
80	0xbe19d562	-0.15022805
81	0x3e2d6cfd	0.16936107
82	0x3d957765	0.07298163
83	0x3c781324	0.015141282
84	0x3d5d31b9	0.054002497
85	0xbc0bcdf2	-0.008532988
86	0x3d1c5014	0.038162306
87	0xbc434b11	-0.011919753
88	0x3e097d23	0.13426642
89	0xbe07c8ff	-0.13260268
90	0xbca16c71	-0.01970503
91	0xbe45d861	-0.19320823
92	0x3d8e9b0a	0.06963165
93	0xba58f0ad	-0.00082756096
94	0xbe48a64e	-0.1959469
95	0x3e098df1	0.13433053
96	0x3e35fe3e	0.17772767
97	0x3e4a7ad4	0.19773418
98	0x3cbce2f9	0.023057448
99	0xbdf7e946	-0.1210504
100	0x3de87d22	0.11351992
101	0x3b952c47	0.0045523974
102	0xbe4c866a	-0.1997315
103	0x3e0a1b3a	0.13486949
104	0x3e1582de	0.14600703
105	0xbe2c2efe	-0.16814801
106	0x3e51cffd	0.20489497
107	0xbe43176a	-0.190519
108	0xbdca793d	-0.098864056
109	0x3d33f950	0.043938935
110	0x3e57359a	0.21016541
111	0xbe2ac3f6	-0.16676316
112	0xbd100b34	-0.035166934
113	0x3baa0cc2	0.005189509
114	0x3e28c75f	0.16482304
115	0xbe2b2b9e	-0.16715857
116	0x3e60f3a3	0.2196794
117	0xbe1fc46e	-0.15602276
118	0xbd8c7ffd	-0.06860349
119	0xbe1823ed	-0.14857455
120	0x3e3a56d3	0.18197183
121	0x3d63b31c	0.055590734
122	0xbdd6ca93	-0.10487857
123	0x3e1473eb	0.14497344
124	0xbd0d95b5	-0.0345666
125	0x3c51420d	0.012772095
126	0x3e02a0bd	0.1275663
127	0xbce0c815	-0.027439157
128	0xbe1d54c0	-0.15364361
129	0x3d81b367	0.063330464
130	0xbd3a4636	-0.045477115
131	0x3e2d5cf2	0.16929987
132	0xbcf4fced	-0.02990576
133	0x3e793e92	0.24340275
134	0x3ddb7078	0.10714811
135	0x3e0dd7d9	0.1385187
136	0x3da92606	0.082592055
137	0xbdb3845d	-0.08765481
138	0x3c4498b6	0.0119993
139	0xbe1a56af	-0.1507213
140	0xbd1847ee	-0.037177972
141	0xbd2f06a6	-0.04273095
142	0xbdc7ddc9	-0.09759099
143	0x3cbc7ede	0.023009714
144	0xbd0a4a04	-0.033761993
145	0xbc9f4808	-0.019443527
146	0xbdf19732	-0.11796416
147	0xbb88cbfd	-0.004174708
148	0x3d7546c5	0.059881944
149	0xbd5cdfa3	-0.053924214
150	0x3e18f503	0.14937215
151	0xbd9b8ed6	-0.07595603
152	0x3d7005bd	0.058599222
153	0x3d297620	0.04137242
154	0xbd74020b	-0.05957226
155	0x3e98af1b	0.29821095
156	0x3d917587	0.07102495
157	0x3ca657d8	0.020305559
158	0x3d917b8a	0.07103641
159	0x3d345b78	0.044032544
160	0xbe11b389	-0.14228643
161	0x3ddc0452	0.107430115
162	0xbe182d03	-0.1486092
163	0xbd2fa51b	-0.042882066
164	0xbdf5b25c	-0.1199691
165	0x3c18c6cf	0.009324743
166	0x3e3c3eb8	0.183833
167	0xbdfe0d50	-0.12404883
168	0x3e5fb885	0.21847732
169	0xbd408644	-0.047003046
170	0xbd7c4fa6	-0.061599396
171	0xbe33e0f2	-0.17566279
172	0x3d93dbd1	0.07219661
173	0xbe0e6670	-0.13906264
174	0xbd1caf38	-0.03825304
175	0xbdb2e7bd	-0.08735607
176	0x3e1ab3be	0.15107629
177	0xbe0584d8	-0.13038957
178	0x3bef57e4	0.0073041786
179	0xba80921f	-0.0009809172
180	0x3d16e36f	0.03683799
181	0xbdb427f5	-0.08796684
182	0xbd83a2bb	-0.06427523
183	0xbe4141bc	-0.18872732
184	0x3dbb85ae	0.09156357
185	0x3cb87712	0.022517715
186	0x3e0d3ae4	0.13791996
187	0xbe260390	-0.16212296
188	0x3e17372c	0.1476714
189	0x3cf3c5a7	0.029757334
190	0x3d9369f0	0.0719794
191	0xbdc86ede	-0.09786771
192	0x3c81133e	0.015756246
193	0xbdd611ef	-0.10452639
194	0xbe2d8be4	-0.16947895
195	0x3e1cccdd	0.15312524
196	0xbd622503	-0.05521108
197	0x3da72702	0.08161737
198	0x3e2873f3	0.16450481
199	0xbe0b3f2a	-0.13598314
200	0xbd3ffa02	-0.046869285
201	0xbd9083f0	-0.07056415
202	0xbc440d27	-0.011966026
203	0xbc9fd740	-0.019511819
204	0x3cd2df2b	0.02574118
205	0xbe34616c	-0.17615288
206	0xbdfab59b	-0.1224167
207	0x3d506889	0.050880942
208	0xbda03972	-0.07823457
209	0x3d887f4c	0.06664905
210	0x3de5611a	0.11200161
211	0x3e0a2f00	0.13494492
212	0x3cd3b070	0.025840968
213	0x3e264c08	0.16239941
214	0x3e2944ff	0.16530226
215	0xbe1fcb94	-0.15605003
216	0xbe31c31f	-0.17359589
217	0x3e0523cc	0.13001937
218	0x3cfa16c0	0.030528426
219	0x3c862d36	0.01637898
220	0x3da71530	0.08158338
221	0x3b280680	0.002563864
222	0x3d20dc65	0.039272685
223	0x3df1d746	0.11808638
224	0x3e0356fa	0.12826148
225	0x3e354ac7	0.17704307
226	0x3e462623	0.19350486
227	0x3da562cb	0.08075484
228	0xbe08dd21	-0.13365604
229	0x3e56a6b8	0.20962036
230	0x3e6b3009	0.22967543
231	0xbd0e1801	-0.03469086
232	0x3e000992	0.12503651
233	0x3de300b4	0.110841185
234	0x3db672fd	0.08908651
235	0xbd9251e0	-0.07144523
236	0xbdd253a0	-0.102698565
237	0xbd8f4357	-0.06995266
238	0xbdd2e565	-0.1029766
239	0x3b97a0c7	0.0046273204
240	0xbda8b4a5	-0.0823758
241	0xbccc3166	-0.024925899
242	0x3cc8177c	0.02442526
243	0x3dc82f6e	0.097746715
244	0x3d6c678f	0.05771595
245	0x3deea248	0.116520464
246	0xbe06bac9	-0.1315719
247	0xbd8ae87a	-0.06782623
248	0x3c933aa9	0.017972307
249	0x3dc03124	0.09384373
250	0x3d96db02	0.07365991
251	0xbdcd734e	-0.10031758
252	0x3db8c2d3	0.09021535
253	0xbc5b08ca	-0.013368795
254	0x3d0ecd0c	0.034863517
255	0xbdfdf5b5	-0.124003805

fc2.weight f4 [1, 500]
0	0xbcf7fea2	-0.030272786
1	0xbf9db9a1	-1.2322274
2	0xbf407bb7	-0.75188774
3	0x3fc6deb2	1.5536711
4	0x3e97d70a	0.2965625
5	0x3d008433	0.031376075
6	0xbdae8601	-0.08521653
7	0x3f783f7f	0.9697189
8	0xbd4adde8	-0.049528033
9	0xbec56b95	-0.3855864
10	0xb6d60000	-6.377697e-06
11	0x3d8c5086	0.06851296
12	0xbe15ecce	-0.14641115
13	0xbf87e12b	-1.0615591
14	0xbf4e1e1d	-0.805147
15	0x3e1cd575	0.15315802
16	0x3fd9d1be	1.7017133
17	0xbf44609e	-0.76709926
18	0x3ea2bb73	0.31783637
19	0xbf0f1bb6	-0.5590166
20	0x3e98a3d7	0.298125
21	0x3cfc13ae	0.030771103
22	0x3f4d56a3	0.8021032
23	0x3e8bfae4	0.27339852
24	0x3c90894b	0.017643591
25	0xbf9c71dc	-1.2222247
26	0xbf8c437f	-1.0958098
27	0xbeff5258	-0.4986751
28	0xbee921bf	-0.4553356
29	0xbe21bfb1	-0.1579578
30	0x3e0d6ce5	0.13811071
31	0xbec41345	-0.3829595
32	0x3e5a1761	0.21297981
33	0x3e19f47e	0.15034673
34	0xbfa365d8	-1.2765455
35	0xbf1829be	-0.59438694
36	0x3f057533	0.52131957
37	0xbcea8406	-0.028627407
38	0xbcb8cb0d	-0.02255776
39	0x3c921216	0.01783089
40	0xbe206b6e	-0.15665981
41	0xbe40972e	-0.1880767
42	0xbef3379f	-0.47503373
43	0x3f0f30e1	0.5593396
44	0xbcfa9aac	-0.030591331
45	0x3f2d8043	0.67773837
46	0xbcc667da	-0.024219442
47	0xbfdbb61a	-1.7164948
48	0x3e398bd7	0.18119751
49	0x3d1d5c07	0.038417842
50	0x40536838	3.303236
51	0x3ddf9f74	0.10919085
52	0xbfa2ad09	-1.2709056
53	0x3f339b15	0.7015851
54	0x3e9583cf	0.29202124
55	0xbed4ceb7	-0.4156396
56	0xbea543e2	-0.32278353
57	0x3c981d95	0.018568793
58	0xbf5e2284	-0.86771417
59	0x3f374092	0.715829
60	0xbf34ee7f	-0.70676416
61	0xbdf334c7	-0.11875301
62	0x3ebcc54c	0.36869276
63	0x3c85c522	0.016329352
64	0xbe4b9e30	-0.19884562
65	0x3f78dbef	0.9721059
66	0x3dee0963	0.11622884
67	0x3ebdb197	0.37049553
68	0x3c63fb48	0.013914891
69	0x3f18d35a	0.59697497
70	0x3f568721	0.8379994
71	0x3fc7141a	1.555301
72	0xbfaedcb6	-1.3661106
73	0xbcc186f9	-0.02362393
74	0x3faa881b	1.3322786
75	0xbd1bf59e	-0.038076036
76	0x3e9cab38	0.3059938
77	0xbf1a5245	-0.60281783
78	0xbbfe5b08	-0.0077623166
79	0x3fe600c4	1.7968984
80	0xbe9c9abf	-0.30586812
81	0x3fb6b5b4	1.4274201
82	0xbf99b900	-1.2009583
83	0xbe7cd76d	-0.24691553
84	0xbf9f0d4e	-1.2425935
85	0xbe1ee4a5	-0.15516908
86	0x3e05541f	0.13020371
87	0x3e7059a0	0.23471689
88	0xbf1f2bec	-0.62176394
89	0xbadd5a20	-0.0016887821
90	0x3ff0fc79	1.8827049
91	0xbd6b81db	-0.057496887
92	0x3f503a91	0.81339365
93	0xbcbce1cd	-0.023056889
94	0xbca150fb	-0.019691935
95	0x3e236c6f	0.15959333
96	0xbfd8ca47	-1.693673
97	0xbfd35e4a	-1.651315
98	0x3d1443c6	0.036197446
99	0xbeec7abd	-0.46187392
100	0xbf9d493c	-1.2287974
101	0xbeec4b27	-0.46151087
102	0x3f6a6cf8	0.91572523
103	0x3cc781f2	0.024353955
104	0x3f001500	0.50032043
105	0x3f84babf	1.036949
106	0xbf9d5a68	-1.2293215
107	0x3cb48cf6	0.022039872
108	0xbefb3ade	-0.4906835
109	0xbee7aafe	-0.45247644
110	0x3ff3c5d8	1.9044752
111	0xbe02fabf	-0.12790965
112	0x400d2fa5	2.206033
113	0x3f0a0cc7	0.53925747
114	0xbeb148ff	-0.34626004
115	0xbc575c0c	-0.013144504
116	0xbef14692	-0.47124153
117	0x3f233721	0.63755995
118	0xbd615452	-0.055012055
119	0x3e791d12	0.24327496
120	0xbf981f87	-1.1884621
121	0xbe29af03	-0.16570668
122	0x3feabd35	1.8338991
123	0x3f6bd642	0.92123806
124	0x4005fedf	2.093681
125	0x3f9ee801	1.2414552
126	0x3e554839	0.20828332
127	0xbe961cc1	-0.29318812
128	0xbd2f6e86	-0.042830013
129	0xbc7acdb7	-0.015307835
130	0x3fa1d09b	1.2641786
131	0x3e48831a	0.19581261
132	0x3f89c733	1.0763916
133	0xbf8d160d	-1.1022354
134	0xbf907ba6	-1.1287735
135	0xbd1e4eff	-0.038649555
136	0x3f9348ae	1.1506555
137	0x3d627150	0.055283844
138	0xbd2a9efb	-0.04165552
139	0xbf35ea87	-0.71060985
140	0xbf2e2cf8	-0.68037367
141	0xbf503ab7	-0.8133959
142	0x3e17e424	0.14833122
143	0x3e83e9b7	0.25764248
144	0x4000432d	2.0041
145	0xbd2bf4f4	-0.041981652
146	0x3b9464f8	0.004528638
147	0x3e73cf07	0.23809443
148	0xbf2f3314	-0.68437314
149	0xbe8cb49c	-0.27481544
150	0xbfae7197	-1.3628415
151	0xbf9f5012	-1.244631
152	0x3fe8f245	1.8198935
153	0x3f1e5a43	0.6185648
154	0x3f1981de	0.59963787
155	0x4003c094	2.058629
156	0x3f2e1015	0.6799329
157	0x3f328984	0.6974108
158	0x3d3dcaf0	0.046336114
159	0xbf0c31d6	-0.54763544
160	0x3cbb8ad9	0.022893356
161	0xbf9f1fb0	-1.2431545
162	0xbec7485d	-0.38922396
163	0xbfb01ca3	-1.3758739
164	0xbf47678e	-0.77892387
165	0x3fbfbc67	1.4979371
166	0x3f7d1548	0.988606
167	0x3d622632	0.055212207
168	0xbfec3017	-1.8452176
169	0xbcfe863e	-0.031069871
170	0xbf8a6fbd	-1.081535
171	0xbea1d185	-0.31605163
172	0xbf5d96cd	-0.8655823
173	0xbec8bbcc	-0.39205778
174	0x3ec36099	0.38159636
175	0xbeb08551	-0.34476712
176	0x3fdf225a	1.7432358
177	0xbd2c61a7	-0.042085316
178	0xbf4c91f1	-0.7991019
179	0xbe28acf7	-0.16472231
180	0x3eaa8320	0.33303165
181	0x3d0ae006	0.03390505
182	0x400b73c3	2.1789405
183	0xbd2aaf53	-0.04167111
184	0xbf6371b0	-0.8884535
185	0x3ebe4586	0.37162417
186	0xbe2703db	-0.16310064
187	0x3cb57ce2	0.022154275
188	0xbf8709e8	-1.0549898
189	0xbc8ccdf4	-0.01718805
190	0xbfc2e283	-1.5225376
191	0x3eab65d8	0.33476138
192	0xbead78c3	-0.33881196
193	0xbda9f7ee	-0.08299242
194	0xbd1c0dac	-0.038098976
195	0xbefe2c2a	-0.4964307
196	0x3f85f407	1.0465096
197	0xbf2ba470	-0.67047787
198	0xbfe2cbaa	-1.7718403
199	0x3e788826	0.24270687
200	0xb8a38439	-7.797074e-05
201	0xbb4fd030	-0.0031709783
202	0x3fafee8e	1.3744676
203	0x3d08e5d3	0.033422302
204	0x3e01bb5b	0.12669127
205	0x3d6b8a7d	0.05750512
206	0xbc4a5244	-0.012348715
207	0xbe96af2b	-0.29430518
208	0xbd180b2e	-0.037120037
209	0xbf3c72ac	-0.73612475
210	0x3f142244	0.57864785
211	0xbe693853	-0.22775392
212	0xbcfb569d	-0.030680949
213	0xbed3507d	-0.41272345
214	0xbda923b1	-0.08258761
215	0x3f6935db	0.910978
216	0x3d45f6a5	0.04833092
217	0xbe1403ec	-0.14454621
218	0xbca05437	-0.019571407
219	0x401b5ec6	2.4276595
220	0xbfd548c9	-1.6662837
221	0x3b1b5110	0.002369944
222	0x3c9c382c	0.019069754
223	0x3e01000a	0.12597671
224	0xbf0c13ac	-0.54717517
225	0x3e09e299	0.13465346
226	0xbf016192	-0.50539505
227	0xbf0c595a	-0.5482384
228	0x3dd2231c	0.10260603
229	0xbf49c41a	-0.7881485
230	0xc003da2f	-2.0601919
231	0xbcd91682	-0.02649999
232	0x3f91d62b	1.1393484
233	0xbf4a3ee5	-0.7900222
234	0x3f4f2749	0.8091932
235	0x3d02cc11	0.031932894
236	0x3e9e2488	0.30887246
237	0xbead6796	-0.33868092
238	0xbf23b0db	-0.63941735
239	0x3d879d8b	0.06621846
240	0xbe8316d6	-0.2560336
241	0x3fae416f	1.3613719
242	0x3f85431f	1.0411109
243	0x3ebbe7ac	0.3670019
244	0x3f668bfb	0.90057343
245	0x3cc9b35d	0.02462166
246	0x3e227b8e	0.15867445
247	0xbe05e109	-0.13074125
248	0x3e5ffbe6	0.21873435
249	0xbf2e22ac	-0.68021655
250	0xbd2b3a92	-0.041803904
251	0x3d6a75cb	0.057241242
252	0x3f8d750e	1.1051347
253	0xbeb93d59	-0.36179617
254	0xbd604d6f	-0.054761346
255	0xbd134b33	-0.035960387
